…
/morphic_med$ python train_rni_v3.py --data ./data/comsol_400k.npy --batch 128 --gpu 0
[INFO] Initializing Morphic-Med RNI Stack...
[INFO] Found GPU: NVIDIA GeForce RTX 3080 Ti (12288MB VRAM)
[INFO] Loading Dataset: 400,000 samples found.
[INFO] Tensor shapes: V: torch.Size([400000, 308]), T: torch.Size([400000, 308])
[DEBUG] Data checksum: a7f8e12... verified.
-------------------------------------------------------------------------
Layer (type)               Output Shape         Param #     
=========================================================================
Linear-1                   [-1, 1024]           316,416     
BatchNorm1d-2              [-1, 1024]           2,048       
ReLU-3                     [-1, 1024]           0           
Dropout-4                  [-1, 1024]           0           
Linear-5                   [-1, 512]            524,800     
ReLU-6                     [-1, 512]            0           
Linear-7                   [-1, 308]            158,004     
=========================================================================
Total params: 1,001,268
Trainable params: 1,001,268
-------------------------------------------------------------------------

Epoch 1/150:   0%|          | 0/3125 [00:00<?, ?batch/s]
Epoch 1/150:   0%|          | 1/3125 [00:00<1:20:51,  1.55batch/s, loss=9.992]
Epoch 1/150:   0%|          | 2/3125 [00:00<1:15:20,  1.69batch/s, loss=8.744]
…
